hw2/results/q5_linear/model.weights.pt (torch, 3047 bytes, 2 tensors)

weight f4 [5, 100]
00000000: 89b8 cfbc a620 cabd 70f7 9cbd 66df b33d
00000010: c753 99bd f55f 903e 72f9 f23e 0f39 a63e
00000020: bce7 963e 70a1 413e f939 e83b 15b6 b2be
00000030: 1173 5dbe 8202 cf3d d2e1 9bbe 1263 afbe
00000040: 306e 463e b2f3 303e a15f 84be cd58 1fbf
00000050: c061 58be af66 853e 0964 5a3e a606 f03c
00000060: 0749 0a3d 1458 f9be 1d4a 57be 49d7 6bbf
00000070: 91d5 51be 07c9 35be 127a 52be 825b 93be
00000080: 67d2 13bc 47ba d1be 22de c7bc 5867 cbbe
00000090: 4fcd 5ebe b0c5 5d3b 97f0 8cbe 923c 5fbd
000000a0: 6db2 75be f216 fabe 5555 2abe a7c2 873e
000000b0: f9c2 f0be 036a 98be 5c56 b03e 5194 eb3e
000000c0: 33bf 993e 88ff 42be c807 7abe cfad 543e
000000d0: 6868 98bd 7726 fb3d c923 dfbd 7884 9e3e
000000e0: 736e 1dbd 9cac bcbe b9de 4abc 3306 4cbf
000000f0: 7cce 803c 6d17 8cbd 6d70 db3e 70ae 3c3f
00000100: 5235 2bbe fa48 a7be 2ad4 cfbe a4c6 4cbe
00000110: 1ce1 8fbe cfab c6be 2dca 993e d8d7 9d3c
00000120: 16e3 9cbe 53e2 1abd a14e 0b3f c2b4 c13e
00000130: 9952 10be 5ed6 6fbe 048c 223e bf7a 91bc
00000140: b1ac 03bf 989e a5be 77fb 2f3d dc43 0a3f
00000150: f65f 123e bb47 97bc 2afc 953d 23ef 5c3b
00000160: 6f3e 47bd db88 a2be 3336 b33d 490b 143f
00000170: edf9 9fbe c5c8 1e3d 82a5 033f 7f28 4b3f
00000180: f8aa 1dbc 68eb 123d 9aea fabc 9da6 6cbe
00000190: 9a26 06bd cc94 9dbe 55dd 21be d8e2 4f3f
000001a0: 81fe bfbe 1a35 2fbe a596 86bd 46b5 073f
000001b0: 3c13 b1be 0c70 20bd dc76 453d 9cd8 913e
000001c0: f752 153e 2c1d a9bc fbf0 d4be b9bc a8be
000001d0: bfb7 6a3e 0611 4c3c 75d4 b8be 5fd3 ac3c
000001e0: e70b bdbe 71f9 10be e420 43ba abb5 b63e
000001f0: 245d 0bbe a1b8 2abd 6bf4 cbbe 6daa 2e3e
00000200: fde2 52be 6ad6 e4bd 02d4 663e 7c30 31be
00000210: 634c 7dbe 59e3 11be fe6a 94be 8f09 913d
00000220: aa92 94be 6158 12be fb16 56be 555d c9be
00000230: 1440 923c dd8e 093e 193f 23bd b3ae c33e
00000240: a536 eebe 50ee b8bd 4d7d 763e 7e65 673f
00000250: eb86 c83d 9fd8 7e3e dcdc 8b3e 4902 f9bd
00000260: f8fd f3bc 0898 a23d 6cd2 213e b46b e33e
00000270: fee7 8d3e c228 a3be d250 c63d 8dee b63e
00000280: 8e8e b13d 9cb7 93be 0bff 4f3e 5745 923e
00000290: 541b a2be 077e dabe c335 8abe 4ce4 cb3d
000002a0: a820 453e b501 8bbe 7f79 febc fdd6 a93e
000002b0: 769b 93bd 8ec1 53be 62b1 4d3d 5c76 a83e
000002c0: 6bc5 303d cfb5 9b3d 59f4 58be 5786 6ebe
000002d0: 40b8 eebe 9373 aebe e45f 31be 0a24 f03d
000002e0: 40dc b23d 8069 0fbe 4ff1 41be b335 7f3f
000002f0: bbe2 00bd b391 163c b5b4 6e3e 9079 d23d
00000300: bb1d 0cbe ea27 d5bd 527c 2ebd 974e e23e
00000310: 3b08 32be d4cf 6abe 1fc4 e93d faa0 c23d
00000320: 7cad aa3c 9e51 7d3e fecf 0d3e a777 313f
00000330: c1b8 73ba 5bf2 07bd 9c2e f0bd 1e5c 933f
00000340: f68c bdbe 4fe9 26be c429 02bf e581 68bf
00000350: e211 c4bc 7811 843d 5d85 83be 184e c4bf
00000360: 7ab1 863d bfb1 d1be 6fa3 16be 2ada 6fbf
00000370: fb20 61be 21a4 333e ba2e 903e 4165 8c3f
00000380: 1d27 b9bb 9cfe bdbe 3ae3 4cbf 5302 0cc0
00000390: 8ef4 a2be f8de bebe e63d 1abf b3b6 4abf
000003a0: 2236 803d 7637 9ebe 3e0b cebe 0389 2ebf
000003b0: 2d79 70be a613 edbe 2971 92be de5b 90bf
000003c0: 9414 47bd ef37 09bd 1545 25be dd1a 453e
000003d0: 5cba 0dbe 8638 bb3d be4c c73e e520 d63f
000003e0: c293 07bd 0348 4abe 8b42 8abe f9d7 e33e
000003f0: c8d1 87be 6b33 713e b02c 803e f1b5 0b3f
-0.025356548 -0.098695084 -0.076643825 0.08782844 -0.074866824 0.2819821 0.47455937 0.32465407
0.29473674 0.1890924 0.007086989 -0.34904543 -0.21625926 0.101079 -0.30445725 -0.34255272
0.1937797 0.17280462 -0.2585421 -0.62244874 -0.21131039 0.26054904 0.21327223 0.029300045
0.03376105 -0.4870001 -0.21024366 -0.92125374 -0.20491625 -0.17752467 -0.20554379 -0.28780752
-0.009022332 -0.4096243 -0.024397913 -0.39727283 -0.21758007 0.0033839755 -0.27527305 -0.054501124
-0.23993845 -0.4884563 -0.16634114 0.26515695 -0.47023752 -0.2976838 0.34440887 0.46011594
0.30028686 -0.1904279 -0.24417031 0.20769428 -0.07441789 0.12263196 -0.10895497 0.3096044
-0.03843541 -0.3685044 -0.012382203 -0.7969696 0.01572346 -0.068404056 0.42859212 0.7370367
-0.16719559 -0.32672864 -0.40591556 -0.1999765 -0.28101432 -0.38802955 0.3003706 0.019267961
-0.30642003 -0.037813496 0.54416853 0.3783322 -0.14094009 -0.23421618 0.15873724 -0.017758725
-0.5143538 -0.3234756 0.042964425 0.54009795 0.14294419 -0.018466821 0.07323487 0.0033711873
-0.048643526 -0.31745037 0.08750572 0.5782972 -0.31245366 0.038765687 0.5142442 0.7935867
-0.009623282 0.035869032 -0.030629445 -0.23110433 -0.032751657 -0.30777586 -0.15807088 0.8120551
-0.3749886 -0.171101 -0.06571702 0.53010976 -0.34584987 -0.039169356 0.048209056 0.28485572
0.1458243 -0.020643793 -0.41590104 -0.32956484 0.22921656 0.012455231 -0.36099592 0.021096883
-0.36923143 -0.14157654 -0.0007443561 0.35685477 -0.13609749 -0.041679982 -0.39834914 0.170572
-0.20594402 -0.11173709 0.22541812 -0.17303652 -0.2473617 -0.14246882 -0.2898788 0.07081901
-0.29018146 -0.14291526 -0.20907204 -0.3932902 0.01785282 0.13433404 -0.039855096 0.38219222
-0.46526065 -0.090298295 0.24071236 0.9038924 0.097913586 0.24887322 0.2731694 -0.12158639
-0.029784188 0.07939154 0.15802926 0.44418108 0.27716058 -0.31867033 0.09683384 0.35728875
0.08669768 -0.2885102 0.20312135 0.28568527 -0.31661475 -0.42674276 -0.26994142 0.099556535
0.19250739 -0.2714974 -0.031063793 0.33171836 -0.07207386 -0.20679304 0.050217994 0.329028
0.043157022 0.076030366 -0.21186961 -0.23293434 -0.46624947 -0.3407255 -0.17321736 0.11725624
0.087334156 -0.14005089 -0.18939708 0.99691314 -0.031466227 0.009190011 0.23311122 0.102770925
-0.13683216 -0.10408004 -0.04259903 0.44200584 -0.17385952 -0.22930843 0.1141436 0.0950336
0.020834677 0.24738166 0.13848874 0.693232 -0.0009297245 -0.033190113 -0.1172764 1.1512487
-0.37021607 -0.16299938 -0.5084498 -0.90823203 -0.023934308 0.064486444 -0.25687686 -1.5336332
0.0657682 -0.40955922 -0.14710782 -0.93692267 -0.21985237 0.17543079 0.2816065 1.09684
-0.0056504146 -0.37108314 -0.8003422 -2.1876419 -0.31827205 -0.37279487 -0.602507 -0.79185027
0.06260325 -0.30901688 -0.40242952 -0.68177813 -0.23483725 -0.46304053 -0.2860196 -1.1278036
-0.04860361 -0.033500608 -0.16139634 0.19248529 -0.13840622 0.0914164 0.38925737 1.6728789
-0.033099897 -0.19754033 -0.27003893 0.44500712 -0.26527238 0.2355477 0.25034094 0.54574496

bias f4 [5]
00000000: 237d 1140 402b b23f 9ead 7940 e5a6 c83f
00000010: a1ea 0440
2.2732627 1.3919449 3.9012218 1.5675932 2.0768206
