hw2/results/q5_linear/model.weights.pt (torch, 3047 bytes, 2 tensors)

weight f4 [5, 100]
0.23117684 0.27523866 -0.104360156 -0.09848447 -0.07531915 0.10945663 -0.119310476 -0.12720354
-0.116292745 -0.19274077 -0.13909252 0.091382496 0.2540579 -0.164372 0.072487004 -0.15229636
-0.07033976 0.22899944 -0.17660917 -0.270762 -0.025056632 0.19893399 -0.21088907 -0.1200217
-0.18247613 -0.13306904 -0.059888877 0.12269785 -0.023603836 0.23161854 -0.07210506 -0.010997713
0.001014829 0.17192532 0.20590279 -0.08169695 -0.08487275 0.30117303 -0.06322953 -0.27772534
-0.21320914 -0.27653822 0.2639893 -0.13117763 0.40427548 -0.2856961 0.22907852 0.0696988
0.22990492 -0.123309396 0.37750265 -0.06590236 -0.11239682 0.15333304 -0.07993944 -0.09423927
0.11066141 -0.18138869 0.30368984 -0.080490164 -0.19575652 -0.2195667 -0.2587308 0.40763363
-0.059340592 -0.10921778 -0.05110924 0.09775422 -0.043172088 0.33463392 0.01932939 0.12098814
0.0107976245 0.17647004 -0.22499408 0.014689398 0.026893685 -0.19716041 0.14679319 -0.046820715
0.12618957 -0.32957435 -0.0882549 -0.29188105 0.18299507 -0.013286522 0.09091131 0.14887944
0.0003048488 0.14301056 0.338526 0.06512748 -0.07907124 -0.21352017 -0.15903442 -0.11606539
-0.06758411 0.020822193 0.12645012 -0.0311574 -0.07414732 0.09538304 0.22246695 0.6129306
-0.021381633 0.14332949 -0.042145748 0.19040065 0.18965958 0.111196555 0.052256707 0.28016177
0.28496027 -0.19970484 -0.043381102 0.537477 -0.05042773 0.18929859 0.030554678 -0.0033603718
0.10786952 0.35844553 0.13979031 0.517508 -0.040520664 0.00845649 -0.26405153 -0.31003624
-0.05539121 0.13374908 0.053508554 -0.14615628 -0.0726165 -0.22955243 -0.2604781 -0.074581124
0.27316517 0.28697827 0.06365078 0.7090757 -0.19207272 -0.23764722 0.30716848 0.43750206
-0.23376615 -0.069452256 0.12418364 0.6571813 -0.21141738 0.017716976 -0.4026667 -0.17847614
0.34859657 -0.08554296 0.3245938 0.015163668 -0.2178536 0.2463324 -0.10375359 -0.13513355
-0.17022853 -0.07440791 -0.1628279 0.05774948 0.16144975 0.057296988 0.086750045 0.0053999876
-0.14850557 -0.28617463 -0.26001593 0.30643225 -0.25641817 0.04185841 -0.46270147 -0.07087831
0.2662418 -0.301244 0.0931786 0.47323564 -0.21128382 0.033808008 0.193145 0.37961492
-0.115159 0.12167921 0.029983068 -0.5380752 0.037935607 0.067083016 -0.5097034 -0.32462177
0.189908 0.044476133 -0.10820115 0.7045104 0.06322411 -0.34514084 -0.42164633 0.024229066
-0.010959206 -0.17366298 0.15069495 -0.20152085 -0.24783617 0.29865363 0.27046385 -0.37038654
-0.071753204 -0.10517632 -0.22629893 0.11271876 -0.021611504 -0.12047564 -0.36851713 -0.034166586
-0.2362345 0.3256796 -0.2664269 -0.112855576 -0.10992545 0.01524073 0.13149321 0.01770293
0.014566644 0.13262865 -0.012369437 -0.14804225 0.12286476 0.0015288589 -0.13170055 -0.18064158
0.35372594 0.15963414 0.2632954 -0.12549078 0.30732605 0.07631128 -0.10520175 -0.15833297
-0.08526395 0.15519817 0.08288543 -0.26560903 -0.2841968 0.022560747 0.22446021 0.27252534
-0.22009447 -0.1958038 0.24134068 0.19747305 0.25382367 -0.12303963 -0.09559037 -0.04389872
00000000: 9fb9 6c3e 15ec 8c3e c7ba d5bd 3ab2 c9bd
00000010: ed40 9abd cc2a e03d 0d59 f4bd a541 02be
00000020: e42a eebd d65d 45be 456e 0ebe bf26 bb3d
00000030: e113 823e 2251 28be 1174 943d 94f3 1bbe
00000040: 4b0e 90bd d47e 6a3e 09d9 34be 51a1 8abe
00000050: 9143 cdbc 5ab5 4b3e 4ef3 57be f0cd f5bd
00000060: 06db 3abe 4043 08be 0a4e 75bd 0349 fb3d
00000070: d55c c1bc 692d 6d3e d1ab 93bd c02f 34bc
00000080: 0304 853a 310d 303e 2ed8 523e bb50 a7bd
00000090: c4d1 adbd 5a33 9a3e 7c7e 81bd 0432 8ebe
000000a0: 7f53 5abe 6b96 8dbe 9b29 873e 6e53 06be
000000b0: 32fd ce3e c246 92be 8f93 6a3e 3fbe 8e3d
000000c0: 326c 6b3e a389 fcbd 0748 c13e d1f7 86bd
000000d0: 4e30 e6bd 5603 1d3e 4ab7 a3bd 8500 c1bd
000000e0: 73a2 e23d f5bd 39be 3c7d 9b3e 07d8 a4bd
000000f0: 6674 48be 18d6 60be 5d78 84be 5bb5 d03e
00000100: 1f0f 73bd 92ad dfbd ec57 51bd 5d33 c83d
00000110: 37d5 30bd 2355 ab3e ab58 9e3c a1c8 f73d
00000120: 85e8 303c 90b4 343e d964 66be cdab 703c
00000130: 2550 dc3c 6be4 49be f450 163e 14c7 3fbd
00000140: d737 013e f8bd a8be fcbe b4bd 6f71 95be
00000150: 0f63 3b3e b6af 59bc b52f ba3d da73 183e
00000160: 1dd4 9f39 5c71 123e 4853 ad3e 8e61 853d
00000170: 1af0 a1bd 08a5 5abe ebd9 22be b1b3 edbd
00000180: 8a69 8abd 4e93 aa3c 247c 013e ce3d ffbc
00000190: 8dda 97bd 2f58 c33d 60ce 633e 05e9 1c3f
000001a0: 8928 afbc f7c4 123e 05a1 2cbd 63f8 423e
000001b0: 1f36 423e 05bb e33d 210b 563d 5d71 8f3e
000001c0: 50e6 913e 6d7f 4cbe 62b0 31bd 1898 093f
000001d0: 4f8d 4ebd 7dd7 413e ce4d fa3c af39 5cbb
000001e0: b2ea dc3d 2c86 b73e 3125 0f3e 677b 043f
000001f0: fff8 25bd 178d 0a3c c331 87be 12bd 9ebe
00000200: e5e1 62bd 85f5 083e c92b 5b3d fea9 15be
00000210: f6b7 94bd cb0f 6bbe 635d 85be fdbd 98bd
00000220: 4edc 8b3e d1ee 923e 575b 823d fc85 353f
00000230: b6ae 44be cb59 73be 3045 9d3e 4500 e03e
00000240: 6560 6fbe fc3c 8ebd fe53 fe3d 093d 283f
00000250: cc7d 58be 3123 913c 542a cebe 73c2 36be
00000260: 407b b23e 2631 afbd 2931 a63e 0971 783c
00000270: 0415 5fbe 903e 7c3e c37c d4bd 7360 0abe
00000280: 6350 2ebe 2d63 98bd 5bbc 26be b88a 6c3d
00000290: 1553 253e 3fb0 6a3d 02aa b13d 61f2 b03b
000002a0: d811 18be 7b85 92be cf20 85be b0e4 9c3e
000002b0: 3e49 83be b973 2b3d 35e7 ecbe a628 91bd
000002c0: d850 883e a73c 9abe 6cd4 be3d f14b f23e
000002d0: c95a 58be 447a 0a3d cec7 453e e35c c23e
000002e0: 7bd8 ebbd f332 f93d 0d9f f53c 4cbf 09bf
000002f0: 5e62 1b3d d262 893d ec7b 02bf d334 a6be
00000300: 3e77 423e 9b2c 363d 9198 ddbd cb5a 343f
00000310: a47b 813d 4db6 b0be 07e2 d7be 097c c63c
00000320: 3e8e 33bc b5d4 31be c74f 1a3e 7b5b 4ebe
00000330: c4c8 7dbe 21e9 983e 3d7a 8a3e 4ea3 bdbe
00000340: 58f3 92bd af66 d7bd e8ba 67be 18d9 e63d
00000350: 9c0a b1bc efbb f6bd 47ae bcbe 43f2 0bbd
00000360: 75e7 71be 7abf a63e 1b69 88be d320 e7bd
00000370: 9820 e1bd 41b4 793c 28a6 063e bc05 913c
00000380: efa8 6e3c cecf 073e 2ea9 4abc 6398 17be
00000390: 85a0 fb3d fe63 c83a 82dc 06be 1bfa 38be
000003a0: 911b b53e 2277 233e a8ce 863e a880 00be
000003b0: d759 9d3e 1749 9c3d 0474 d7bd 0a22 22be
000003c0: de9e aebd 45ec 1e3e d6bf a93d e8fd 87be
000003d0: 3e82 91be 51d1 b83c e6d8 653e 7188 8b3e
000003e0: 7260 61be cb80 48be 0322 773e 6036 4a3e
000003f0: 2df5 813e 34fc fbbd e2c4 c3bd 25cf 33bd

bias f4 [5]
0.1868443 -0.90279126 -0.014011136 -0.42771655 0.14600347
00000000: 1d54 3f3e 541d 67bf f78e 65bc aafd dabe
00000010: ef81 153e
